trained_models/carprice_model_mse_0003.pth (torch, 2168 bytes, 1 tensors)

linear.weight f4 [1, 118]
000000 37 e6 03 3d b0 77 08 3d 92 df 0c 3b af 4f 69 3c
       0.03220197 0.033317268 0.0021495563 0.014240189
000010 4b 78 91 bb 33 35 1f 3d 16 4a 1a bc 36 60 04 bd
       -0.004439389 0.038869094 -0.0094170775 -0.032318316
000020 c9 b6 83 bc 11 fb bf bc 5e 0c 4e bd 3a 96 75 bc
       -0.01607837 -0.023435147 -0.050304763 -0.01498943
000030 65 bd 5d bc 78 6f 65 bc 50 ab c9 bb 1b c0 2f bc
       -0.013533925 -0.014003627 -0.0061544552 -0.010726954
000040 f7 b1 bc bb 92 ef ae 3c 05 98 83 3c d3 6b 0a bd
       -0.0057585198 0.02135447 0.0160637 -0.033794235
000050 da 72 d8 bb 7e 1e 38 bc 31 21 cf bc 14 fc fe bc
       -0.0066054882 -0.011237739 -0.025284382 -0.03112606
000060 23 64 94 bc a4 9f f5 3b fd 2b de 3b 4a 6c 7e bc
       -0.018114155 0.0074958373 0.006780146 -0.015528748
000070 74 5c df 3b d0 cf 07 3c f7 c3 10 3c 97 37 4c bc
       0.006816441 0.008289292 0.008835784 -0.0124644255
000080 d9 fd 6a bd 36 93 71 bc e4 91 5f bc 6d 76 63 bc
       -0.057370994 -0.0147445705 -0.013645623 -0.013883215
000090 b7 f6 5b bc 01 81 63 bc 79 a2 4e bc 80 89 5e bc
       -0.013425521 -0.013885737 -0.012611979 -0.013582587
0000a0 9d e0 69 bc e6 60 82 bc fa 6f 7c bc e9 6d 64 bc
       -0.014274743 -0.015915345 -0.015407557 -0.01394222
0000b0 f6 ab 6e bc 2b fc 31 bc 16 e9 7c bd e3 71 6d bd
       -0.014567366 -0.010863344 -0.061745726 -0.05796994
0000c0 69 57 73 bd 68 dc 8d bc e5 4b 95 39 66 fc e8 b8
       -0.059409533 -0.017317012 0.0002847604 -0.00011109635
0000d0 82 50 58 3b 32 d5 53 3a 8d 7b 73 b9 54 66 60 b9
       0.003300697 0.000808078 -0.00023220312 -0.00021400425
0000e0 51 cb cf ba 3f b0 8d 3b 41 96 58 3b b8 63 48 ba
       -0.001585344 0.0043239887 0.0033048543 -0.0007644254
0000f0 34 7b bf ba de 88 4e ba 6a 93 97 38 2f 2b ea 3a
       -0.0014608861 -0.0007878671 7.227699e-05 0.0017865653
000100 24 54 68 b8 07 69 e4 ba a1 4d 98 ba 12 75 7d b9
       -5.5391472e-05 -0.001742632 -0.0011619815 -0.00024171572
000110 ca b2 80 b8 5e 0c ad bb f8 32 0b ba 9a b7 1d bb
       -6.136818e-05 -0.0052810153 -0.0005310024 -0.0024065734
000120 5b 13 5e 3b c3 4b f3 3a b4 c8 30 bb 97 05 b0 38
       0.0033886048 0.0018562007 -0.0026975097 8.393375e-05
000130 2d e9 1c bb b2 66 9c 3b cd 34 cd 39 f6 3d cf 39
       -0.0023942695 0.0047729844 0.00039139987 0.0003952828
000140 82 d5 7a 3b e8 54 09 bb 38 fb 67 3a f5 56 d2 3a
       0.0038274233 -0.002095515 0.0008849385 0.0016047644
000150 51 05 d9 3a 09 72 08 bb 65 cd b1 3a 68 98 15 b9
       0.001655737 -0.0020819923 0.0013565241 -0.00014266523
000160 bd 1c 03 bb 15 78 0c 3a d3 eb 59 ba 7a 45 ff 3b
       -0.0020006143 0.000535847 -0.00083130336 0.0077902647
000170 ef 4a 94 3a 2c b9 a3 ba 97 a7 50 3b 0d cc 02 bc
       0.0011313836 -0.0012491099 0.0031838173 -0.00798322
000180 9c 40 db 3a 85 64 a9 3a f9 82 50 ba a4 86 89 38
       0.0016727629 0.0012923634 -0.0007954087 6.557748e-05
000190 57 29 a3 ba 1e 6a 37 3b 7a b4 15 3a 65 b8 97 bb
       -0.0012448233 0.0027986835 0.0005710792 -0.004630136
0001a0 74 c4 73 bb 14 1a 6e bb 31 c3 8b bb b6 5a c4 bb
       -0.0037195953 -0.0036331462 -0.004265212 -0.005992259
0001b0 eb ff 9f bb 6e d9 ce bb ab 05 aa bb b1 63 8e bb
       -0.0048828027 -0.0063125407 -0.005188664 -0.0043453802
0001c0 c3 75 9a bb a9 7d 9b bb 9b 09 81 bb e8 16 51 39
       -0.0047137453 -0.0047452045 -0.0039379126 0.00019940326
0001d0 8c 39 5b ba a3 02 80 3f
       -0.0008362762 1.0000805
