trained_models/carprice_two_layer_model_mse_00015.pth (torch, 7272 bytes, 3 tensors)

linear1.weight f4 [10, 118]
000000 aa 7d e9 bd 84 fd f8 bc 32 05 c2 bb 3e 8c 26 bb
       -0.11400922 -0.030394323 -0.0059210295 -0.002541318
000010 b0 e6 a8 bb 69 f4 2c bd eb 96 6d 3d c4 da c6 bd
       -0.005154453 -0.042225275 0.058005255 -0.09709695
000020 33 bd 1c 3d 55 8a 2c bd 38 f0 e4 3d 4f a0 5d bd
       0.038266372 -0.04212411 0.111786306 -0.05410796
000030 d8 c0 8d bd 09 0e 38 bd 75 b2 44 bd 73 6c 4d 3d
       -0.06921548 -0.04493526 -0.048021752 0.050152253
000040 b6 f9 30 bd b3 05 09 bd aa 06 b5 3c aa 17 b3 3b
       -0.043206893 -0.0334527 0.022097904 0.0054654675
000050 9f 9a 11 bd df 40 37 bd 18 11 94 bd f9 6c 04 3d
       -0.03554785 -0.0447396 -0.07229823 0.032330487
000060 d7 f4 b1 bd 36 ef 96 3d 30 dc a3 bc 01 02 aa 3b
       -0.086892776 0.073698446 -0.020002455 0.005188227
000070 f7 f6 09 bd 02 1a 72 bd 0e 60 42 3d b0 a8 8c 3d
       -0.03368279 -0.059106834 0.047454886 0.06868112
000080 b3 26 a4 bd 26 55 8e 3d c7 aa b7 bb 0e 89 17 bd
       -0.08015194 0.069498345 -0.005605075 -0.03699594
000090 7d 27 a8 bd 42 ba cf bd fd 88 9f 3c a1 04 37 ba
       -0.08210657 -0.10142948 0.0194745 -0.0006981586
0000a0 3a 01 dd 3c 9e 83 8e 3d e3 bc 9f 3d b2 1c ab 3b
       0.026978124 0.06958698 0.07799699 0.0052219266
0000b0 c1 8f 6a bd ad 4f 49 bd fa 9e 5e bb 58 3c 24 3d
       -0.057266 -0.04914825 -0.003396927 0.04009661
0000c0 2c 76 72 bc d5 c5 b6 bd 75 95 96 3c d9 42 04 bd
       -0.014798682 -0.08924452 0.018381814 -0.032290313
0000d0 ac 4a a0 bc 39 df 24 38 cb 7f c9 ba 63 7c a3 3d
       -0.019566856 3.930854e-05 -0.0015373168 0.07982709
0000e0 9a 8d fd 3b 40 c5 44 bb c1 6b 8a bd c4 63 18 bd
       0.0077378275 -0.0030024797 -0.06758834 -0.03720452
0000f0 a1 c5 3f 3c a6 24 92 ba 19 de c1 3c 9e c6 f0 bc
       0.011704833 -0.0011149838 0.023665475 -0.029391583
000100 8f ea 2c bc ce 7a 59 3d e0 7e 17 3b 64 53 a0 3c
       -0.01055397 0.05309563 0.0023116395 0.019571014
000110 94 89 af 3d c2 85 de 3c 13 8a 00 bd b7 e3 a3 3b
       0.08571163 0.02716339 -0.031381678 0.005001511
000120 00 ae 73 3b 2c d3 78 bd 18 ea 50 3d 1a 3c 51 bd
       0.003718257 -0.060748264 0.0510045 -0.051082708
000130 b1 e1 ba bd 23 1b a0 3c 3e 84 d0 3d ea a4 25 bd
       -0.091250785 0.01954419 0.10181473 -0.040440477
000140 2f e3 11 3d 1e 53 92 ba 86 58 37 bc 70 ee 9b bc
       0.03561705 -0.0011163687 -0.011190539 -0.019034594
000150 33 17 c6 3d 5f 5b 89 bd 5b 55 8b 3d dc a6 df 3c
       0.09672394 -0.06706881 0.0680339 0.027301244
000160 48 ef 06 3a 44 16 56 bd 9b 2d 0b bd cc 73 81 3b
       0.000514735 -0.052267328 -0.03397904 0.0039505716
000170 91 16 20 bd 81 51 0b 3d 34 44 82 bc b8 43 c2 bc
       -0.03908402 0.034013275 -0.015901662 -0.023713931
000180 61 19 3e 3d d4 b3 a4 3d f8 b3 23 3c e8 dd a7 bd
       0.046410922 0.08042112 0.009991638 -0.08196622
000190 2c a2 53 3c 6a cd 07 3d 38 c4 a8 bc bd 01 9e bd
       0.012917083 0.033154882 -0.020601377 -0.07715175
0001a0 5d 73 44 3d 28 29 16 3d ab d7 84 3d 26 64 e5 3c
       0.04796158 0.036660343 0.06486448 0.028001856
0001b0 9f 3b bd bd 78 62 80 bc bc 0a a6 3d c9 03 a2 bd
       -0.092398874 -0.015671954 0.08107516 -0.07910878
0001c0 10 7e 83 bd 75 d5 f4 bc 80 69 7e 3d bd e9 93 bd
       -0.06420529 -0.02988694 0.06211233 -0.072223164
0001d0 6e ce 15 bd 64 42 44 3c 6b 52 90 bc 1f aa 0f bd
       -0.03657382 0.011978719 -0.017617425 -0.03507435
0001e0 1d 76 a0 3d 23 77 c0 3c 74 92 58 bd 93 7e 85 bd
       0.07835028 0.023494309 -0.052874044 -0.06518283
0001f0 34 22 1f 3e 3d d6 05 3d 78 7f fb 3c 5d 19 64 3d
       0.15540391 0.032675017 0.03070043 0.05568825
000200 6c 90 87 bd 24 b8 0e 3e 82 97 7a 3d 7f 47 a4 3d
       -0.06619343 0.13937432 0.061179645 0.08021449
000210 de d4 80 bd 18 17 25 bb 44 34 a8 bd 6b 12 a0 3d
       -0.06290601 -0.0025190767 -0.08213094 0.07816013
000220 5c db 5a bd 13 6d 26 bd 1e f5 66 3d e0 6b bc bc
       -0.053431854 -0.040631365 0.056386106 -0.023000658
000230 71 e6 b1 bd b2 62 15 3d 1c ff 18 3d 78 12 48 bd
       -0.08686531 0.036471076 0.037352666 -0.04884574
000240 f2 b8 b3 3d ff 21 bd bc fe 3f b9 3c 0e ca 5b bd
       0.0877551 -0.0230875 0.022613522 -0.05365949
000250 03 8a b4 bb 88 1b 43 bd 5f b5 19 bc 97 9d 94 3d
       -0.0055096163 -0.047633678 -0.009381621 0.072566204
000260 c2 6a d0 3b 03 a5 81 3a be 44 6f 3d d0 8b a7 bc
       0.006360383 0.0009891096 0.058415167 -0.02045241
000270 6a 9d 43 bd 98 f6 72 bd 31 4f 4d 3d 7b 02 be 3d
       -0.047757544 -0.0593172 0.05012435 0.09277817
000280 53 b5 f0 bd 3a ce 4e 3b f1 7d 8b 3d 13 7d 9c 3d
       -0.11753335 0.0031556026 0.06811131 0.076410435
000290 74 4a 92 bc 6e b2 b1 3d ba 50 40 3d b5 ca e7 3c
       -0.017857768 0.08676611 0.046951987 0.0282949
0002a0 64 a6 37 3d 81 d0 4e 3d b5 5b 87 bd 36 ed b5 bb
       0.044836417 0.050491814 -0.066092886 -0.0055519594
0002b0 90 84 02 3a d8 dd 63 3c 3b cd c8 3d 0f 7d 74 3c
       0.000497886 0.013907872 0.098047696 0.014922394
0002c0 a6 00 ad 3c 33 eb 22 bd d0 c6 40 bd 7b c4 8e 3c
       0.021118473 -0.039775085 -0.047064602 0.017427674
0002d0 43 51 76 3d b4 e3 8c 3d cd c8 44 3c 46 e1 7c 3d
       0.06013609 0.068793684 0.012010765 0.061738275
0002e0 2a 5f 95 3d c0 3b 6b 3c 4d eb 39 bd ee 0c 84 3d
       0.07293542 0.014357507 -0.045390416 0.06447779
0002f0 ca b1 1a 3c ce 94 98 3d 35 5a 61 bb 7d cc ea 3d
       0.009441802 0.07450257 -0.0034386043 0.11464784
000300 cf 14 b9 3d 06 ba 47 3d 4f 8b 02 3d 61 d1 a6 3d
       0.09037172 0.04876139 0.031871136 0.081454046
000310 25 a4 32 bc c1 60 98 bc 19 27 15 bc ac 05 b7 bb
       -0.010903393 -0.018600823 -0.00910356 -0.005585393
000320 e4 e1 97 bd 90 bf 86 3d 58 6e b8 3d 4c 52 91 bd
       -0.07416132 0.065795064 0.090054214 -0.07095775
000330 0c 7c b9 3c be 85 6b 3c bc 47 e8 ba aa 66 a5 3c
       0.022642158 0.014375148 -0.0017721574 0.020190556
000340 1d 52 c5 bc 51 3d 0e 3d 40 c8 e8 ba 63 54 0b bd
       -0.024087006 0.034726445 -0.0017759874 -0.034016024
000350 54 17 34 bb c5 bb 13 bd ea 30 11 3b 5b c4 68 3d
       -0.0027479725 -0.036067743 0.00221544 0.056827884
000360 84 83 a8 3c ee 4f 49 3a 1b 4c d3 3c bc 4c 98 bb
       0.020570524 0.0007679452 0.025793126 -0.0046478193
000370 cf 8c bd 3c d0 10 79 3c 2e ef fb bc 5b 15 bd bc
       0.023138432 0.015201762 -0.030753698 -0.023081472
000380 b7 6f 37 3d 86 67 23 3d 51 e0 99 3c f9 c6 7a bd
       0.044784274 0.03989365 0.01878372 -0.06122491
000390 66 93 0e 3e 1c ff 85 bc bc b6 a6 3c 53 44 b7 3c
       0.13923416 -0.016356997 0.020350806 0.022371447
0003a0 73 05 37 3d 76 8d 80 3e e1 4a 39 3d 75 f9 29 bf
       0.04468293 0.25107926 0.045237426 -0.66396266
0003b0 cc 3d af bc f7 e5 ec 3c ae ff 6d 3c d8 b6 40 3c
       -0.021391772 0.02891825 0.014526291 0.011762343
0003c0 88 5d 30 3d 3c 3c 34 bb fe 7d 6c 3d a7 7e 79 bd
       0.04305795 -0.0027501723 0.057737343 -0.0609118
0003d0 4a b8 b5 bc 59 e7 ed bc 66 f3 68 bc 44 3e fc ba
       -0.022182602 -0.02904098 -0.014218187 -0.0019244631
0003e0 37 b2 9e bc 80 ea 15 bd 7f 23 71 bd 18 2d 86 3d
       -0.019372089 -0.03660059 -0.058871742 0.0655157
0003f0 03 8c 17 bd ca 30 84 3d e0 d5 11 3b 4c 60 80 39
       -0.03699876 0.06454618 0.0022252724 0.0002448581

linear1.bias f4 [10]
000000 98 6d b7 bd e0 45 f1 3d e2 15 50 bc e8 d2 f9 bc
       -0.0895645 0.11780906 -0.01270053 -0.030496076
000010 67 f1 b0 bd db 5c a1 bd 93 da 54 3e 2f dc b4 3d
       -0.08639794 -0.07879039 0.20786504 0.08831059
000020 b3 a4 9a bd b4 23 a9 bc
       -0.07550945 -0.020646907

linear2.weight f4 [1, 10]
000000 b2 d2 94 bd 77 8a 4a be 29 d9 cc 3e 92 da 93 3d
       -0.072667494 -0.19779383 0.4000943 0.07219423
000010 cd 16 0e be f4 3c 64 be 73 fa ce be 37 df 54 3e
       -0.13875885 -0.22288877 -0.40425453 0.20788275
000020 f7 43 c5 bd 2f 21 c8 bd
       -0.09632104 -0.09771954
